…
  - 180
  - 210
  lr_decay_epochs:
  - 150
  - 180
  - 210
  lr_decay_rate: 0.1
  num_workers: 8
  optimizer:
    lr: 0.05
    momentum: 0.9
    name: SGD
    weight_decay: 0.0005
    weight_decay_agent: 0.001
    weight_decay_stage2: 0.0005
  print_iter_freq: 100
  save_ep_freq: 30
  seed: 1029
validation:
  batch_size: 64
  num_workers: 8

2024-01-10 15:50:56,960 - main - INFO - Set seed : 1029
2024-01-10 15:50:58,386 - main - INFO - num_classes: 100
2024-01-10 15:50:58,386 - main - INFO - Loading teacher and student...
2024-01-10 15:51:01,034 - main - INFO - VGG(
  (block0): Sequential(
    (0): Conv2d(3, 64, kernel_size=(3, 3), stride=(1, 1), padding=(1, 1))
    (1): BatchNorm2d(64, eps=1e-05, momentum=0.1, affine=True, track_running_stats=True)
  )
  (block1): Sequential(
    (0): Conv2d(64, 128, kernel_size=(3, 3), stride=(1, 1), padding=(1, 1))
    (1): BatchNorm2d(128, eps=1e-05, momentum=0.1, affine=True, track_running_stats=True)
  )
  (block2): Sequential(
    (0): Conv2d(128, 256, kernel_size=(3, 3), stride=(1, 1), padding=(1, 1))
    (1): BatchNorm2d(256, eps=1e-05, momentum=0.1, affine=True, track_running_stats=True)
  )
  (block3): Sequential(
    (0): Conv2d(256, 512, kernel_size=(3, 3), stride=(1, 1), padding=(1, 1))
    (1): BatchNorm2d(512, eps=1e-05, momentum=0.1, affine=True, track_running_stats=True)
  )
  (block4): Sequential(
    (0): Conv2d(512, 512, kernel_size=(3, 3), stride=(1, 1), padding=(1, 1))
    (1): BatchNorm2d(512, eps=1e-05, momentum=0.1, affine=True, track_running_stats=True)
  )
  (pool0): MaxPool2d(kernel_size=2, stride=2, padding=0, dilation=1, ceil_mode=False)
  (pool1): MaxPool2d(kernel_size=2, stride=2, padding=0, dilation=1, ceil_mode=False)
  (pool2): MaxPool2d(kernel_size=2, stride=2, padding=0, dilation=1, ceil_mode=False)
  (pool3): MaxPool2d(kernel_size=2, stride=2, padding=0, dilation=1, ceil_mode=False)
  (pool4): AdaptiveAvgPool2d(output_size=(1, 1))
  (classifier): Linear(in_features=512, out_features=100, bias=True)
)
2024-01-10 15:51:01,047 - main - INFO - SGD (
Parameter Group 0
    dampening: 0
    differentiable: False
    foreach: None
    initial_lr: 0.05
    lr: 0.05
    maximize: False
    momentum: 0.9
    nesterov: False
    weight_decay: 0.0005
)
2024-01-10 15:51:01,047 - main - INFO - <torch.optim.lr_scheduler.MultiStepLR object at 0x0000019A7BDD0C70>
2024-01-10 15:51:01,048 - train_kd - INFO - Start training...
…
